Classifying Thyroid Disease Using a Multi-Layer Perceptron/model/trained_weights.npz (npz, 2990 bytes, 4 tensors)

w1 f8 [10, 21]
000000 f8 c8 80 48 e7 eb f4 bf 31 19 6d f9 50 e2 fe bf
       -1.3075936157370602 -1.9302530043801875
000010 9d 78 4b dc ea 22 fe bf 21 35 9a 89 d2 ec 05 c0
       -1.8835247617021544 -2.7406359434304624
000020 05 c4 88 3c 32 bd e2 bf be 92 0a 4a ed ba f6 bf
       -0.5855952436742206 -1.4206364528883308
000030 e7 b9 8f 09 15 9d 00 c0 e0 0b 4c 84 4c 73 11 c0
       -2.076700281809497 -4.362596575871947
000040 20 25 03 bf 55 b0 e3 bf bf 92 aa c2 6a b9 d3 3f
       -0.6152752619465538 0.308191957572756
000050 c8 70 58 80 8a 60 db bf 05 8b a9 60 3f e0 d5 bf
       -0.4277673962949504 -0.34181198539424457
000060 92 b5 e6 1b e5 c9 e1 bf 80 51 8d a6 c0 74 ed 3f
       -0.5558953804917783 0.9205020192116962
000070 80 fa 97 98 b6 75 e1 bf 97 0f 4d 7e 4a 71 fb bf
       -0.5456192951531449 -1.7151589330323753
000080 e4 32 54 48 41 fd 39 40 4a 71 2c fa 8e 8e 1b c0
       25.989277382427545 -6.889217289888913
000090 69 b0 52 10 80 24 24 c0 9f dc 37 1d b6 e1 04 40
       -10.071289548963437 2.6102106363938016
0000a0 0a 95 9e e1 c7 1f 2e c0 95 c8 9e f4 c1 10 f1 bf
       -15.062071848495652 -1.0665912204245036
0000b0 95 a7 29 c1 0c e1 fb bf a3 2d 27 8e 33 04 f6 3f
       -1.742443804303979 1.376025729451478
0000c0 52 9f 00 63 18 47 d0 3f 2b f2 34 8e fb 81 b7 bf
       0.2543393103428474 -0.0918271276650066
0000d0 a4 d1 8b ac 7f e0 b4 bf 26 e4 99 74 ff f1 fe 3f
       -0.08155057871392174 1.93408151194877
0000e0 ba 57 d0 80 12 46 08 40 e9 0d e2 53 0a 04 e0 bf
       3.034214979513277 -0.5004932058658912
0000f0 88 0b c9 ce e1 a7 e4 bf ea 62 1f 90 d2 fd e5 bf
       -0.6454934157157917 -0.6872341933149901
000100 ce 08 17 3a a7 b1 cc bf 88 06 c8 b4 7d 02 ef 3f
       -0.22417154632973396 0.9690540820012794
000110 58 ee 3e 72 48 0e d8 3f 4f 5b f7 6c de 5a ed 3f
       0.3758717647249106 0.9173423889395539
000120 c2 40 ea d4 cb 49 e7 bf b9 be de 2c fa 35 3d c0
       -0.7277583273408015 -29.21084862173186
000130 ed 7e df 3d e5 59 1c 40 16 a8 38 fb c9 ce 1c 40
       7.087788550153829 7.201942372639698
000140 b6 0c e8 e0 cb c6 14 c0 02 72 58 de d7 a5 29 40
       -5.194137109912097 12.823912571236182
000150 68 6c d3 68 75 18 d5 3f 95 1a db a4 01 cb e7 3f
       0.3296178363504567 0.7435310573426529
000160 82 69 b3 a0 9e 7e 03 40 d0 27 23 1c bd 60 c1 bf
       2.4368259958984604 -0.13576473115818866
000170 f1 b8 13 f7 96 69 ed 3f 27 ba 33 af b5 b4 9e bf
       0.9191393686030819 -0.02998622781609064
000180 cf e5 b0 07 26 64 05 40 e3 63 86 8b 07 33 0b 40
       2.6739006615505114 3.3999167347324017
000190 dd d3 89 67 f7 10 bd bf f3 1d f3 7c 98 94 f1 bf
       -0.11354013707916928 -1.0987782364699086
0001a0 b1 03 fa f2 0d cc da 3f 1d 71 1f 58 10 40 ed 3f
       0.41870449760613854 0.9140702935360739
0001b0 72 cc 04 50 b1 90 05 40 f8 5b 8a 95 33 a7 e3 bf
       2.6956506968941136 -0.6141603394233917
0001c0 a4 0a 94 d1 97 a4 f1 3f f5 56 32 1b 62 be ec 3f
       1.102683848061738 0.8982401400741923
0001d0 61 d8 f1 13 4b 8c 41 c0 92 2f c5 79 a1 04 1e 40
       -35.09604119595384 7.5045222307779955
0001e0 8a ca 47 97 d7 48 2b 40 00 d0 5b 83 a1 44 13 c0
       13.642269828332491 -4.817022373656073
0001f0 d6 49 cd 0b 8c c8 34 40 62 42 07 b2 e3 a1 f6 bf
       20.783386933917278 -1.4145237879021342
000200 89 8d be 4a 87 be 0b c0 27 ea ea e8 3f 73 0f c0
       -3.4680314864542123 -3.931274242085482
000210 35 1c 89 72 fd 9a 06 40 3a 47 9e a4 fd e3 f3 3f
       2.825678725060721 1.243161814727911
000220 5a 8f c7 75 92 89 fd 3f 23 c7 62 82 ce 32 e6 3f
       1.84608694083814 0.6937019869421629
000230 73 70 7f 20 cb 29 fa 3f 7d 12 7e ae 68 de 8d bf
       1.6352034825750053 -0.014584367585265707
000240 00 a7 75 92 22 3e ec 3f b7 a0 10 a9 ec 54 b9 bf
       0.8825848446406042 -0.09895209434091866
000250 52 f1 53 77 f4 b0 dc bf 93 d4 34 3b 68 4b e7 3f
       -0.44830047276606877 0.7279549747824084
000260 5e aa 9f 3b ae 51 c2 bf a6 38 55 c2 28 56 f0 3f
       -0.14311769400895263 1.021034964669107
000270 e0 e4 d2 f4 aa c3 e3 3f b8 8a 26 a8 95 18 3c c0
       0.6176352292742671 -28.096033582124363
000280 fa fe f7 bf 63 f2 17 40 47 f8 16 9b f5 73 20 40
       5.986708640586352 8.226483198694167
000290 fc 40 99 61 b6 74 10 c0 75 96 b8 36 5e 14 2f 40
       -4.113976979235527 15.539781293900186
0002a0 8e 9c 0a 95 88 21 b9 3f 85 56 39 23 33 40 cb 3f
       0.098167930972169 0.2128967210762093
0002b0 d3 e1 6b 74 4c 60 0d 40 37 5f c7 13 64 9d f6 bf
       3.672020825903226 -1.4134255192383998
0002c0 28 7c 90 63 01 28 ca 3f de 57 05 f9 49 b8 01 c0
       0.20434586869757365 -2.2149848418002724
0002d0 fc 85 fa 64 e4 17 e4 3f cb 84 74 f7 e0 24 16 40
       0.6279165241468827 5.536014429556597
0002e0 c9 1e 7a 04 95 0a c9 3f e6 59 53 30 61 5d f2 bf
       0.19563544005017366 -1.1477977645605448
0002f0 79 be ad 66 94 3b 01 c0 c9 1e 8e 22 c2 41 ee bf
       -2.154091646363494 -0.9455271410851874
000300 67 20 0e 88 33 f9 fc 3f 16 36 72 e7 a6 e3 d1 3f
       1.810840159860186 0.2795197735038938
000310 da 93 be 22 86 3e d7 3f 79 dc 66 60 4b 90 02 c0
       0.3631911601353842 -2.320456269396854
000320 83 cf 67 d7 65 ec 37 c0 fc af 80 6e 65 21 11 40
       -23.923428976864226 4.282613493542154
000330 75 70 b6 3e 54 29 02 40 56 9c ad 40 ee bb 07 c0
       2.2701802157808353 -2.9667630246145036
000340 87 15 5f 42 cd 48 1d 40 4e 6a 72 2c 3a e3 f0 bf
       7.3210955019507145 -1.0554754005630858
000350 49 20 a3 14 a8 0c f8 bf cd 23 6f 78 3d 34 d5 3f
       -1.5030899816647596 0.33131348382135856
000360 c6 55 f6 96 d3 bc d6 3f c5 ba 42 9b a2 9a b8 bf
       0.3552750562897383 -0.09610954561751857
000370 50 0b 3e 5a 84 10 f8 3f a4 79 d7 2f 41 6c e0 3f
       1.5040324711887543 0.5132146772773933
000380 6a a6 74 d2 67 b4 00 40 24 c2 a5 87 ea 8d d2 3f
       2.0880886499260685 0.28991187331033275
000390 a3 a1 13 c5 6a de e0 3f fd 60 6c 18 ef 70 ec 3f
       0.5271505211977011 0.8887858845728541
0003a0 02 95 72 a4 fa ea e1 bf e9 6b 43 c9 51 90 d4 bf
       -0.5599339687220495 -0.3213085618460228
0003b0 13 ca 28 b7 f2 43 c1 3f 05 fe 3c 6e 16 6c e3 bf
       0.13488611167265727 -0.606944289502224
0003c0 dc ec 35 b7 49 3f f5 3f 5d a9 85 3e db 04 29 c0
       1.3279511601129377 -12.509485200706587
0003d0 88 40 0d 28 9e eb 02 40 84 28 0e 36 ba 0d 13 40
       2.3650477532428944 4.76340565167823
0003e0 89 2a ac f2 90 19 07 c0 f8 36 5b 91 20 41 1c 40
       -2.887483497504324 7.063600798790269
0003f0 88 c3 c0 2e f8 e0 f8 bf 37 bc 47 94 c6 90 09 c0
       -1.5549241853989049 -3.1956912598029947
000400 c1 46 ed 48 e2 4e f1 bf 9a 11 91 45 b1 9b 02 40
       -1.081758770819235 2.3260217127701255
000410 f6 b8 78 b0 88 b7 e6 3f 24 15 b4 aa 3d c0 01 40
       0.7099040457449337 2.218867620106396
000420 9f bc cd 65 ea 81 9f 3f 73 6f 93 cd 4a d1 9d 3f
       0.03076902624473787 0.029118698880537374
000430 0e 46 d8 25 cc e7 c0 3f 96 35 25 1a 5b 2b ea 3f
       0.13207389686481047 0.8177924643184038
000440 8c 0a ce 0a 0e a8 f2 3f 25 33 5f d4 16 c7 d9 3f
       1.1660290166916267 0.40277643908921085
000450 94 a0 b9 7b a0 9b e7 3f 3c 16 b9 d7 df e9 d7 bf
       0.7377474228387819 -0.37364955965708524
000460 1f 80 fe 1d 82 2f d6 bf 6f a5 d5 aa b8 56 04 40
       -0.3466496746932552 2.5423444124650625
000470 73 3f 5b d8 bd 2a db 3f c1 1c f6 51 d6 50 e2 3f
       0.42448373917158405 0.5723678208168154
000480 00 c6 60 ff 6a 95 17 40 9c b5 c3 e0 5d eb db 3f
       5.895915975839216 0.43624064397484985
000490 ea 3b 04 8d e7 b9 13 40 8e f3 b3 ec 74 fd d3 3f
       4.931547358878541 0.3123447715332127
0004a0 1c 1b e5 a1 6c 65 cd 3f d7 2d e3 4e 35 14 16 40
       0.22965772538210494 5.519734604469213
0004b0 05 46 fe 6a bf b8 1a c0 96 be 86 5c 96 f8 d9 bf
       -6.680417701501487 -0.40579756770873965
0004c0 5b 72 e0 90 07 31 1c c0 28 b3 63 79 11 5c c4 3f
       -7.047880424212589 0.15905970027179106
0004d0 7d c4 16 dd 60 ab 09 40 1b a1 5f 21 2c ab ed 3f
       3.2086808464596843 0.9271450664355457
0004e0 ce ad 9a 68 c5 7f 02 c0 c9 0d f8 85 bd d2 12 c0
       -2.3123882457927953 -4.705801099076276
0004f0 39 63 fe f9 de 49 02 c0 c8 7b 7b 0b 10 ca e7 3f
       -2.2860698252447063 0.7434158539070888
000500 c6 45 8a 11 3a 33 c5 bf 11 ea ef 3b 63 d5 b5 3f
       -0.16562581879092714 0.08528728688535404
000510 de e3 9e 02 1a 7d 15 c0 35 39 48 8d 02 6e 28 40
       -5.37216953367985 12.214863219324437
000520 4c 78 da 09 cc 63 07 c0 bf be bc 0c 8b bd 2f c0
       -2.9237290162846303 -15.870201490440534
000530 4c 05 e5 f9 cc bc d0 bf 5d 04 38 68 5e b3 31 c0
       -0.2615234794976302 -17.700659288097416
000540 e6 aa 07 dd f9 db e1 bf b2 42 78 43 48 c2 b3 3f
       -0.5581025425902595 0.07718326232157827
000550 b2 04 31 a1 69 65 0f 40 60 46 93 4f 4c 7a 00 c0
       3.924517878826543 -2.0597158638782247
000560 3f 5c 58 ef ec 18 d9 bf f1 05 a4 cb 1d 21 05 c0
       -0.39214633344221633 -2.6411701116019164
000570 28 a3 7e 07 91 22 d4 3f 49 d8 d5 ff a6 b8 e8 3f
       0.31460977298643167 0.7725405689987009
000580 41 e8 6b b2 8a 5f f3 3f bb da e4 9d 5e 8f 02 c0
       1.2108256311025942 -2.320004685923178
000590 29 2f 5e ea 15 27 e1 bf e5 5c 9d fe 6c 14 ef bf
       -0.5360211923120676 -0.9712433789199194
0005a0 65 bc f1 5e 70 77 d8 3f 58 88 ba 88 2e a6 bb bf
       0.38228997489836153 -0.10800448263265261
0005b0 7c 83 1f 7c 70 31 d3 bf c5 a2 8a 6d c1 ac 02 c0
       -0.2998925411357545 -2.3343533094342512
0005c0 2a 19 30 4d f0 a6 1b c0 31 cd da e9 cd f2 fa 3f
       -6.913026052532851 1.6842784056614841
0005d0 77 3d d8 db 3e 45 ec bf b8 cd d5 45 49 2f e1 bf
       -0.8834528249589501 -0.53702224387819
0005e0 b9 56 6e 13 1f 64 e2 bf aa f4 d9 fe 0b 95 fb bf
       -0.5747218493949823 -1.7238883929378894
0005f0 3c 22 18 bf 7b 38 f5 bf 4f d8 7c 45 ec b8 a2 3f
       -1.326289888822557 0.036567100031263615
000600 28 af b6 ed 2f 92 99 bf fd ea 77 60 b8 2e e0 bf
       -0.024971722492110576 -0.5057031520985614
000610 d7 2f 1d a9 b2 a4 cb 3f 62 80 74 6c fb fd d8 3f
       0.2159636808158882 0.3905018386012725
000620 b2 60 d0 3b f4 f6 f0 3f a2 0e dc fa 0b d6 da 3f
       1.0602915131076256 0.41931437967307705
000630 83 3f be 2a a9 13 9b bf 35 d0 24 75 55 2b e9 3f
       -0.0264421875322678 0.7865397727932818
000640 b6 2c 75 df 5e 76 c4 bf b3 4a 31 90 b8 18 f7 3f
       -0.1598623839475743 1.4435353882333117
000650 f6 54 0c 5b 81 e4 be bf c2 43 84 81 c2 b0 f1 3f
       -0.12067421410423038 1.1056542453045357
000660 5b 3b da 1e 3e 16 a9 bf 25 f4 bd a3 74 b5 31 c0
       -0.04899782301537555 -17.708811029315388
000670 18 01 90 07 70 19 0a 40 3c cb 40 4d a4 bd 0b 40
       3.262420710642015 3.4675985370062374
000680 d7 f3 62 f2 53 fc 08 c0 e2 2e c9 3a 92 91 1d 40
       -3.1232069908569247 7.39215938427853

w2 f8 [3, 10]
000000 c4 c6 18 3a 57 a0 20 40 a8 c1 ca 50 5b 02 21 c0
       8.313165488743273 -8.504602932692094
000010 85 07 26 d8 e3 19 2e c0 ff 35 b7 c6 fb 75 24 c0
       -15.050566439287431 -10.230436525215735
000020 ba 30 ba f0 5c b1 10 c0 35 93 aa c3 91 2b 17 c0
       -4.173206101764828 -5.792548234258722
000030 c9 9a b0 99 34 be 0e c0 00 d7 96 20 2a 49 20 40
       -3.8428737647076088 8.142899530804698
000040 cc 66 a6 7a 4a 70 e1 3f 81 53 0e e3 78 f1 17 c0
       0.5449573894031459 -5.98581270956936
000050 9f db 08 ce ca a0 0c c0 d1 0e 0b c3 97 52 15 c0
       -3.5785118195012298 -5.330657050657195
000060 3f ad 4c 4c f6 0e 14 c0 8e 23 bd 35 d1 76 0b c0
       -5.014611427478768 -3.4330162237496955
000070 bb 9e a1 38 ab ea 0c c0 f3 4e 55 77 8f d1 f5 bf
       -3.6145843910524866 -1.3636622106031921
000080 c4 9d 5d ae 33 43 fe 3f 5f fa af 97 e9 05 1b c0
       1.8914067088279447 -6.755773897281499
000090 66 7a 02 d4 2c 63 f4 bf 2a ee 08 bb 59 ae 00 c0
       -1.2742126733425265 -2.0851320850467987
0000a0 47 33 ba 90 96 19 24 c0 85 60 2e 74 7f e5 14 40
       -10.04997684739068 5.224119010286931
0000b0 c9 e4 93 c3 8b 4f 17 40 14 b9 8c 7e 29 b0 12 40
       5.8276815947549006 4.6720332883253555
0000c0 fd 77 f9 c9 ac a1 18 40 99 e2 7b a6 66 7d 05 40
       6.157885700084077 2.6862309462124583
0000d0 98 be 4c 33 e0 fe 00 c0 f7 dd fa b8 38 eb 14 c0
       -2.1244510658069196 -5.229708566962919
0000e0 60 d3 b6 08 60 60 f2 3f 30 00 d1 ea 6e ec 12 40
       1.1485290851971612 4.730891865736382

b1 f8 [10]
000000 4b ef 60 36 1c c3 02 c0 86 f7 37 bc 07 db 10 c0
       -2.345268654664243 -4.2138966950568655
000010 30 1b db b1 c0 5a 10 c0 8a f5 39 e1 43 c4 10 c0
       -4.088625697134191 -4.191665190851731
000020 46 12 4f d6 84 3d 04 c0 cd 11 ec c5 4e d0 08 c0
       -2.530038522995059 -3.1017127478282647
000030 81 65 c3 e7 6f b3 07 c0 ba ec d4 91 4a 98 ff bf
       -2.9626157862191467 -1.9746804901649697
000040 8d a6 a0 ef a4 2e 07 c0 23 19 ac 73 20 5e 07 c0
       -2.8977755280400914 -2.920960334481735

b2 f8 [3]
000000 33 00 1e a6 fe 48 d3 3f 9b 72 c2 9c f6 77 d1 3f
       0.3013302442777814 0.27294698055792715
000010 ce 07 2a dc 95 8c f0 bf
       -1.0343226051486343
